…
51567/51567 [==============================] - 44s 862us/step - loss: 0.0896 - val_loss: 0.0340
Epoch 8/10
51567/51567 [==============================] - 45s 864us/step - loss: 0.0860 - val_loss: 0.0364
Epoch 9/10
51567/51567 [==============================] - 45s 874us/step - loss: 0.0846 - val_loss: 0.0326
Epoch 10/10
51567/51567 [==============================] - 46s 884us/step - loss: 0.0817 - val_loss: 0.0327
_________________________________________________________________
Layer (type)                 Output Shape              Param #
=================================================================
lambda_1 (Lambda)            (None, 80, 320, 3)        0
_________________________________________________________________
conv2d_1 (Conv2D)            (None, 38, 158, 24)       1824
_________________________________________________________________
conv2d_2 (Conv2D)            (None, 17, 77, 36)        21636
_________________________________________________________________
conv2d_3 (Conv2D)            (None, 7, 37, 48)         43248
_________________________________________________________________
conv2d_4 (Conv2D)            (None, 5, 35, 64)         27712
_________________________________________________________________
dropout_1 (Dropout)          (None, 5, 35, 64)         0
_________________________________________________________________
conv2d_5 (Conv2D)            (None, 3, 33, 64)         36928
_________________________________________________________________
flatten_1 (Flatten)          (None, 6336)              0
_________________________________________________________________
dense_1 (Dense)              (None, 100)               633700
_________________________________________________________________
activation_1 (Activation)    (None, 100)               0
_________________________________________________________________
dropout_2 (Dropout)          (None, 100)               0
_________________________________________________________________
dense_2 (Dense)              (None, 50)                5050
_________________________________________________________________
dense_3 (Dense)              (None, 10)                510
_________________________________________________________________
dense_4 (Dense)              (None, 1)                 11
=================================================================
Total params: 770,619
Trainable params: 770,619
Non-trainable params: 0